checkPoint/CartPolePPO_policy_model.pt (torch, 143618 bytes, 11 tensors)

actor.layer1.weight f4 [128, 4]
0	0x3ca5d5cc	0.020243548
1	0x3cf88e50	0.030341297
2	0xbf25da15	-0.6478589
3	0xbe48493e	-0.1955919
4	0xbeef7aff	-0.46773526
5	0x3dc1af44	0.094572574
6	0xbf22bab1	-0.6356612
7	0xbec29ec9	-0.38011768
8	0x3e6d6fb1	0.23187138
9	0x3cafe4ac	0.021471344
10	0xbede8ec7	-0.43468305
11	0xbeb981e5	-0.36231914
12	0xbe80f038	-0.25183272
13	0xbe7c75f1	-0.24654366
14	0x3dc952b6	0.09830229
15	0x3e25146d	0.16121073
16	0x3ef4d67b	0.47819886
17	0x3e7c4ca0	0.24638605
18	0x3f1b29ae	0.60610473
19	0x3e92ce13	0.28672847
20	0x3eaad63d	0.33366576
21	0xbd9c81a0	-0.076419115
22	0xbe79de10	-0.24401116
23	0xbe8b7a0a	-0.27241546
24	0xbeb96d11	-0.36216024
25	0xbe2df223	-0.16986899
26	0x3ea12809	0.31475857
27	0x3e55ef95	0.20892175
28	0x3d690193	0.056886267
29	0x3eee1aa0	0.46504688
30	0xbe083ccb	-0.1330444
31	0x3e433267	0.19062196
32	0x3eb16760	0.3464918
33	0x3eb92b24	0.36165726
34	0xbaa289f9	-0.0012400738
35	0xbf0df10a	-0.5544592
36	0xbdf23f76	-0.118285105
37	0x3e19fca0	0.15037775
38	0xbe991111	-0.29895833
39	0x3f15d663	0.58530253
40	0x3eca1e34	0.39476168
41	0x3f05a11b	0.5219895
42	0x3c911d2a	0.017714102
43	0x3ecddcd6	0.40207547
44	0x3e849e87	0.25902197
45	0xbea8dbba	-0.32980138
46	0x3e202742	0.15639976
47	0xbeb69eca	-0.3566802
48	0x3d1f32d1	0.03886682
49	0x3d80c277	0.06287091
50	0xbef8a6ac	-0.4856466
51	0xbf05a743	-0.52208346
52	0xbe9b89cc	-0.30378568
53	0x3f0056a3	0.501322
54	0x3ed995c0	0.42497063
55	0x3d29b57e	0.04143285
56	0x3e89390a	0.2680133
57	0x3eb55bfe	0.35421747
58	0x3e4b8201	0.19873811
59	0xbef5de1e	-0.48021024
60	0x3da42a4d	0.08015881
61	0x3e43f9cb	0.19138257
62	0xbf183aed	-0.59464914
63	0xbec4dcf2	-0.38449818
64	0xbe8aba48	-0.27095246
65	0x3edc5f5f	0.43041512
66	0xbed146a2	-0.408742
67	0xbeb8e71a	-0.36113816
68	0xbe41300a	-0.18865982
69	0x3dd72464	0.10504988
70	0xbef0ccc0	-0.47031212
71	0xbe859a56	-0.2609431
72	0x3f027320	0.50956917
73	0xbd0ab09d	-0.033859838
74	0x3e5ea479	0.21742429
75	0x3dbef309	0.09323699
76	0x3dfc7cf4	0.123285204
77	0xbe5eb9da	-0.21750584
78	0x3ee83424	0.4535228
79	0x3f14c5c7	0.58114284
80	0xbee8c6fe	-0.4546432
81	0x3eea98f6	0.45819825
82	0xbe051310	-0.12995553
83	0x3ec5d4af	0.38638827
84	0x3dc6525b	0.09683677
85	0x3e1b47e8	0.15164149
86	0xbf0386b7	-0.51377434
87	0xbdd2f125	-0.10299901
88	0xbf0b85a4	-0.54500794
89	0x3e7f70ac	0.24945325
90	0x3eadd44d	0.33951035
91	0xbeb94601	-0.3618622
92	0x3db0ce3e	0.086330876
93	0xbedcc403	-0.43118295
94	0xbe319ff4	-0.17346174
95	0xbe8a37ce	-0.269957
96	0x3eb4fb58	0.3534801
97	0xbef48ea4	-0.47765076
98	0x3e13bb77	0.14426981
99	0xbd53fe76	-0.051756345
100	0x3eff9d10	0.49924517
101	0xbe1613e6	-0.14656028
102	0x3e54be35	0.20775683
103	0xbd3d4b77	-0.046214547
104	0xbda7eff7	-0.082000665
105	0xbe7b13ac	-0.24519223
106	0xbf340e50	-0.7033434
107	0xbf233b8c	-0.63762736
108	0x3de493ea	0.11161025
109	0x3ecc0759	0.39849356
110	0xbdf659cc	-0.12028846
111	0xbef735dc	-0.4828328
112	0x3c25a71a	0.010110641
113	0xbd494274	-0.04913564
114	0xbc05f410	-0.008175865
115	0xbf0613ca	-0.52373946
116	0x3eefbc29	0.46823242
117	0x3ddda0bd	0.10821674
118	0x3f005bc1	0.50140005
119	0x3d86cadc	0.06581661
120	0x3d17b56a	0.037038244
121	0xbc5462f7	-0.012963048
122	0x3cf099fe	0.029370304
123	0x3eb77ee6	0.35839003
124	0x3ed7d2a4	0.42152894
125	0x3e5b9593	0.21443777
126	0xbe900d11	-0.2813497
127	0xbea28cdf	-0.317481
128	0xbe97e388	-0.2966578
129	0xbe449191	-0.19196154
130	0xbeea8fe0	-0.45812893
131	0xbe894fec	-0.26818788
132	0x3eb8fd18	0.36130595
133	0xbe179480	-0.14802742
134	0xbe8480bb	-0.25879464
135	0x3dd14703	0.102186225
136	0x3dc09ee1	0.09405304
137	0x3cb903d1	0.022584828
138	0x3e3d59b5	0.18491252
139	0xbf1cb192	-0.6120845
140	0x3e6537d5	0.2238458
141	0xbdfecd98	-0.12441558
142	0x3e72f6f0	0.23727012
143	0xbe989332	-0.297998
144	0xbe169956	-0.1470693
145	0x3e270ccc	0.16313475
146	0xbde9be09	-0.114131995
147	0x3df1d662	0.118084684
148	0xbd62c6d0	-0.055365384
149	0xbe528252	-0.20557526
150	0xbee02cb2	-0.437841
151	0x3df19e36	0.117977545
152	0xbecfd636	-0.40593117
153	0x3e19a404	0.15003973
154	0xbebb9f98	-0.36645198
155	0x3e87041a	0.26370317
156	0xbd29415e	-0.041322105
157	0xbecada3c	-0.39619625
158	0xbe5b9edf	-0.21447323
159	0x3ed12d7e	0.4085502
160	0xbcdb2291	-0.026749881
161	0x3e903c80	0.28171158
162	0x3f11a0d9	0.5688606
163	0x3f06642d	0.52496606
164	0x3e083c61	0.13304283
165	0x3e00054d	0.12502022
166	0x3edda7f0	0.4329219
167	0x3efe19e2	0.49629122
168	0xbe9c538e	-0.30532497
169	0x3e816aa3	0.2527667
170	0xbde1796a	-0.11009486
171	0x3ee092cc	0.43861997
172	0x3ef58fc9	0.47961262
173	0x3cf4b4a9	0.029871302
174	0xbe861d5f	-0.26194283
175	0x3eeb2c6f	0.45932338
176	0x3e412b13	0.18864088
177	0x3eb2eaf2	0.34944874
178	0x3d4e9d77	0.05044314
179	0x3f2ac625	0.66708595
180	0x3ef61315	0.48061433
181	0xbedcc00b	-0.43115267
182	0x3e3d3548	0.18477356
183	0xbf038670	-0.5137701
184	0xbee532e2	-0.44765383
185	0x3ebf7db8	0.37400603
186	0x3e0225c4	0.12709719
187	0xbf0e0694	-0.5547879
188	0xbe137446	-0.14399824
189	0x3e265249	0.16242327
190	0xbd851290	-0.06497681
191	0x3d1e0761	0.038581256
192	0xbe9ae6c2	-0.3025418
193	0x3e82bd65	0.25535122
194	0x3d516cd2	0.05112917
195	0xbed93a86	-0.42427462
196	0xbea58ffc	-0.32336414
197	0x3e39ca32	0.18143538
198	0x3ea65141	0.32483867
199	0xbea71ef1	-0.32640794
200	0xbda98976	-0.08278172
201	0xbe5aab36	-0.21354374
202	0xbeb5da7f	-0.35518262
203	0xbdf1ab88	-0.11800295
204	0xbe9953ba	-0.2994669
205	0xbdf113c7	-0.1177135
206	0xbf120fc9	-0.57055336
207	0xbe92cad1	-0.28670362
208	0xbe3b8d7f	-0.18315695
209	0xbe98ee28	-0.298692
210	0xbe1a204a	-0.1505138
211	0xbf1bed91	-0.6090937
212	0x3d398f13	0.04530246
213	0xbec4cb64	-0.38436425
214	0x3d59ebd8	0.053203434
215	0x3eeb1d1e	0.45920652
216	0xbe7e491a	-0.24832574
217	0xbe6c580a	-0.23080459
218	0x3f00a08d	0.5024498
219	0xbe9d2a76	-0.30696458
220	0x3ed0c4dc	0.40775192
221	0xbe9b3c70	-0.30319548
222	0xbe9cfc6f	-0.30661342
223	0xbeb4c154	-0.35303748
224	0x3e826664	0.25468743
225	0xbea88866	-0.32916564
226	0xbd205e2d	-0.039152313
227	0x3e915923	0.28388318
228	0x3ef45b03	0.47725686
229	0xbedae541	-0.42753032
230	0x3e4e7b5b	0.20164244
231	0x3e2d5d91	0.16930224
232	0x3be62bdd	0.007024272
233	0xbec19ffd	-0.37817374
234	0x3b04224b	0.0020162042
235	0x3efa1dae	0.4885077
236	0x3ea5033a	0.32229024
237	0xbdee6a22	-0.11641337
238	0xbf32b8ad	-0.6981304
239	0xbee1e499	-0.4411972
240	0xbe170b99	-0.14750518
241	0x3e91976c	0.28435838
242	0x3ea48bc0	0.3213787
243	0x3ef113bc	0.4708537
244	0xbead2a56	-0.33821362
245	0x3e0a22f4	0.13489896
246	0x3e8c338a	0.2738307
247	0xbeaf8fa6	-0.34289283
248	0x3e7d09a0	0.24710703
249	0x3c1ec6d2	0.009690957
250	0xbe284e3d	-0.16436096
251	0xbf029874	-0.51013875
252	0x3dee7c8d	0.1164485
253	0xbe2a85f8	-0.16652668
254	0xbe1ba483	-0.15199475
255	0x3c0f0c40	0.008730948

actor.layer1.bias f4 [128]
0	0x3db13297	0.08652227
1	0x3de20221	0.11035562
2	0x3da9c1b1	0.08288897
3	0x3ec1d094	0.37854445
4	0xbd04f1d7	-0.0324572
5	0x3ceb44b3	0.028719282
6	0xba9608df	-0.0011446736
7	0x3e98e4ca	0.29862052
8	0x3db12864	0.08650282
9	0xbbf8d780	-0.007594049
10	0xbeb43a30	-0.35200644
11	0xbe5c2849	-0.21499743
12	0x3df6e65f	0.120556585
13	0xbe5262f5	-0.20545562
14	0x3eb3e450	0.35135126
15	0x3e8f8058	0.28027606
16	0xbd793db8	-0.060849875
17	0xbec7c758	-0.39019275
18	0xbec92d53	-0.39292392
19	0x3ebd037a	0.36916715
20	0x3e8d90bc	0.27649486
21	0x3e7203c4	0.23634249
22	0xbf0d0283	-0.5508196
23	0x3e9db31f	0.3080072
24	0x3e35c7f9	0.17752065
25	0xbe8550ca	-0.260382
26	0x3ea5ae37	0.32359478
27	0x3bd130c1	0.0063839857
28	0x3d155e3b	0.03646682
29	0x3eb8ecbf	0.36118123
30	0xbec0eb22	-0.37679392
31	0x3e651b93	0.223738
32	0xbed631e5	-0.41834942
33	0xbd63d3d2	-0.05562193
34	0x3ebb5592	0.36588722
35	0xbe9706ec	-0.29497468
36	0xbedba944	-0.42902577
37	0xbd6c8482	-0.057743557
38	0xbebd0d0e	-0.36924022
39	0x3ea980b0	0.33105993
40	0x3e9dac5e	0.30795568
41	0x3d962ba5	0.07332543
42	0xbef0af13	-0.4700857
43	0xbe353b60	-0.17698431
44	0x3e41a984	0.18912321
45	0xbea01f4f	-0.31273887
46	0xbdf25a4f	-0.11833631
47	0xbec42608	-0.38310266
48	0xbe99a961	-0.30012038
49	0xbc0b5f52	-0.008506613
50	0xbe9f7f13	-0.31151637
51	0x3e0b07e3	0.13577227
52	0x3e1130f4	0.1417883
53	0xbdd1de63	-0.10247495
54	0xbef94546	-0.48685664
55	0xbe48fc1f	-0.19627427
56	0x3dc8dffc	0.09808347
57	0xbea93eb9	-0.33055666
58	0x3eaa4070	0.33252287
59	0x3db522fe	0.08844565
60	0x3e10131e	0.14069793
61	0xbd427877	-0.047478165
62	0x3ec10535	0.37699285
63	0xbe9209dd	-0.2852315
64	0xbea95799	-0.33074644
65	0x3eb63dee	0.35594124
66	0xbcee9768	-0.02912493
67	0x3ea024e1	0.31278136
68	0xbedb03eb	-0.42776427
69	0xbe3be2a8	-0.18348181
70	0xbd3e6557	-0.046483364
71	0x3debe3dd	0.11518071
72	0xbe1790f8	-0.14801395
73	0xbefa7ad2	-0.4892183
74	0xbd436c21	-0.04771054
75	0x3ea43cb7	0.32077572
76	0x3d776ca5	0.060406346
77	0x3db86c38	0.09005016
78	0x3e86c16f	0.26319453
79	0x3e39a610	0.18129754
80	0x3df99c6a	0.12188037
81	0xbf088bd9	-0.5333839
82	0xbec00c14	-0.37509215
83	0xbe6a7e3a	-0.22899714
84	0xbec40f95	-0.38293138
85	0xbec1e508	-0.3787005
86	0x3ed58ac3	0.4170743
87	0x3e814e93	0.2525526
88	0x3dc60166	0.096682355
89	0xbef60f8b	-0.48058733
90	0x3ebeb725	0.37249103
91	0x3dee121d	0.116245486
92	0x3e0e6f94	0.13909751
93	0x3e8bf7b2	0.27337414
94	0x3e916d0f	0.28403518
95	0xbe5bf31b	-0.21479456
96	0x3d69c45e	0.057072036
97	0xbd9fad09	-0.07796676
98	0x3e36c29c	0.17847675
99	0xbe3e5015	-0.18585236
100	0x3e54719c	0.20746464
101	0x3e05ce78	0.13067043
102	0x3ea2afe1	0.3177481
103	0x3e52a3c7	0.20570289
104	0x3eb047d9	0.34429815
105	0x3e072356	0.13197073
106	0x3e893609	0.26799038
107	0x3dc9de79	0.098568864
108	0xbd6eaf4b	-0.05827264
109	0x3e6e4b13	0.23270826
110	0x3dc4d5ca	0.096110895
111	0x3e17f582	0.14839748
112	0x3ea0f3a3	0.3143588
113	0x3e1a9bf0	0.15098548
114	0xbee5b5f9	-0.44865397
115	0x3e82b557	0.25528976
116	0xbe742e67	-0.23845826
117	0x3e1c84da	0.15285054
118	0x3dc4ab06	0.09602933
119	0x3eaed325	0.34145465
120	0xbedd5de7	-0.43235704
121	0x3e693440	0.22773838
122	0xbeb4e7bb	-0.35333046
123	0x3e9b6514	0.30350554
124	0x3ca825ca	0.020525832
125	0x3dd4c9bd	0.10390041
126	0xbdfb5965	-0.1227291
127	0xbe9dfe3d	-0.3085803

actor.layer2.weight f4 [128, 128]
0	0xbd3fe989	-0.046853576
1	0x3d029c3d	0.03188728
2	0x3aed249f	0.0018092579
3	0xbd3806e8	-0.04492846
4	0xbd9053f0	-0.0704726
5	0x3aa63c9c	0.0012682858
6	0xbdd33be2	-0.10314156
7	0x3d0e5a75	0.034754235
8	0x3c554a0d	0.013018143
9	0x3d2b1c68	0.041775137
10	0xba0ebba4	-0.0005444831
11	0xbe0bfe11	-0.13671137
12	0xbd06fdd3	-0.03295691
13	0x3c5b508a	0.013385901
14	0xbb1b02a6	-0.0023652702
15	0xbd5917fc	-0.05300139
16	0x3d468b3d	0.04847263
17	0x3ba5a875	0.005055482
18	0xbc41435c	-0.011795845
19	0xbd99fcdb	-0.075189315
20	0xbdb2fd8d	-0.08739767
21	0x3d5840f4	0.05279632
22	0x3d9193a6	0.0710824
23	0xbdae79a3	-0.08519294
24	0xbb89a2aa	-0.0042002993
25	0x3d784900	0.060616493
26	0x3c8efcdb	0.017454555
27	0xbcab670c	-0.02092316
28	0x3d157e10	0.036497176
29	0x3c9eb21b	0.019372037
30	0x3d38db3c	0.045130953
31	0xbdb101fd	-0.08642957
32	0xbd97df9b	-0.07415696
33	0x3d48f553	0.049062084
34	0xbdd1d6df	-0.102460615
35	0x3cbe8b95	0.023259917
36	0xbcfe526b	-0.03104516
37	0x3cb23b49	0.021756785
38	0xbdc73ae8	-0.09728032
39	0xbd9ad456	-0.07560031
40	0x3d43135b	0.04762588
41	0xbb549ed7	-0.0032443309
42	0xbd1e99a2	-0.038720734
43	0x3d92afb3	0.07162418
44	0xbd2cb8aa	-0.042168297
45	0xbd28b710	-0.041190207
46	0xbc6021f9	-0.013679975
47	0x3c5d23ff	0.013497352
48	0xbd802fe8	-0.062591374
49	0xbd60db75	-0.05489679
50	0x3c3b9c0d	0.01145078
51	0x3dbf4e64	0.09341124
52	0xbc23e1ec	-0.010002594
53	0x3d5fabf2	0.05460734
54	0x3cc2f90d	0.023800397
55	0xbdc1236a	-0.09430583
56	0xbc465e4f	-0.012107446
57	0x3d8da5c1	0.06916381
58	0x3cebfe73	0.028807854
59	0xbd9abb37	-0.0755524
60	0xbd0a53bb	-0.033771258
61	0x3ab42031	0.0013742504
62	0x3d0efdb3	0.034909915
63	0xbd46ad72	-0.048505254
64	0xbcb8efbf	-0.022575257
65	0xbcea1d99	-0.028578566
66	0xbd92036d	-0.0712956
67	0xbcfaa76b	-0.03059741
68	0xbda5a092	-0.08087267
69	0xbd32bc85	-0.043636817
70	0xbdb08334	-0.08618775
71	0xbd815123	-0.06314304
72	0xbd1a26fd	-0.03763484
73	0xbdf9d66e	-0.12199102
74	0xbd9f47f6	-0.07777397
75	0x3c92ec6e	0.017935004
76	0xbcf2a44c	-0.029619358
77	0x3caa1aaf	0.020764677
78	0x3d3d24f3	0.046177816
79	0xbc7ed733	-0.015554237
80	0x3d2290c8	0.039688855
81	0x3d9faecd	0.077970125
82	0xbcbece0d	-0.023291612
83	0xbd89beb7	-0.06725829
84	0xbda0dd67	-0.07854729
85	0x3d6f2225	0.058382172
86	0xbd35a816	-0.044349752
87	0xbd858809	-0.06520087
88	0xbd3f1080	-0.046646595
89	0x3b74c9c3	0.0037351705
90	0x3d2e344d	0.042530347
91	0xbd5bc564	-0.053655043
92	0x3dbb184d	0.091354944
93	0x3c8270da	0.015922952
94	0x3d6247a1	0.055244092
95	0xbdce2405	-0.10065464
96	0xbcf5e91c	-0.030018382
97	0x3b7b6dd4	0.0038365023
98	0xbd5128fb	-0.051064473
99	0xbda7e045	-0.08197073
100	0x3d1dc1ca	0.03851489
101	0xbd57429d	-0.05255376
102	0xbd6eb06b	-0.058273714
103	0xbda13a9b	-0.07872506
104	0x3be9d7f2	0.0071363384
105	0xbd1b27d3	-0.037879776
106	0xbddd46ef	-0.10804545
107	0xbdacd061	-0.084381826
108	0xbd890ada	-0.06691523
109	0x3c64bd7e	0.013961194
110	0x3c8b3a01	0.016995432
111	0xbbe031f0	-0.0068418905
112	0xbc6a225c	-0.0142904185
113	0xbd3bb89a	-0.045830347
114	0x3ccbed13	0.02489332
115	0xbd9f0ef3	-0.07766523
116	0x3da7e673	0.081982516
117	0xbc2bb4df	-0.010480135
118	0x3d8b92ca	0.06815107
119	0xbd7b77b6	-0.061393462
120	0x3d07edc6	0.033185743
121	0xb9f65f24	-0.00046991662
122	0xbcdcac96	-0.026937764
123	0xbd32fce0	-0.04369819
124	0x3c794064	0.015213106
125	0xbc9db11f	-0.019249497
126	0x3d853d40	0.06505823
127	0xbd9cc9f9	-0.07655711
128	0x3da9b9c4	0.08287385
129	0x3e10a5f9	0.14125814
130	0xbd12be67	-0.035826113
131	0x3da351a3	0.07974555
132	0xbd997e0a	-0.07494743
133	0x3dd4d49f	0.10392117
134	0x3d80a30a	0.06281097
135	0xbd88a86e	-0.066727504
136	0xbdb8ed83	-0.09029677
137	0x3d48297e	0.048867695
138	0xbde69a65	-0.11259917
139	0xbc9d555c	-0.019205742
140	0xbbc49b39	-0.0059999493
141	0xbe0b19ac	-0.13584012
142	0xbd403a04	-0.046930328
143	0x3d0f4837	0.03498098
144	0xbbf236b8	-0.007391777
145	0x3c4c2ef1	0.012462364
146	0xbd1183b6	-0.035526
147	0xbc7bebd8	-0.015376054
148	0xbda304a8	-0.079598725
149	0xbd21d945	-0.039513845
150	0xbd4a5616	-0.049398504
151	0x3d9d3134	0.076754004
152	0x3d97fe6f	0.07421576
153	0xbdd1fbae	-0.10253082
154	0xbb70394c	-0.0036655245
155	0x3cd7cfcd	0.026344204
156	0x3df91e60	0.12163997
157	0xbdb33ae1	-0.08751465
158	0xbd60c1be	-0.054872267
159	0xbc524e50	-0.012836054
160	0x3c561693	0.013066906
161	0x3d71792a	0.05895344
162	0xbc1dea81	-0.00963843
163	0xbcc46a4f	-0.023976473
164	0xbd47ee89	-0.04881147
165	0x3da3cc4f	0.07997953
166	0x3d03e68a	0.03220228
167	0x3daa1153	0.083040856
168	0xbda49f6c	-0.0803822
169	0xbe0294f8	-0.1275214
170	0x3c43277c	0.011911269
171	0xbdef2452	-0.116768494
172	0xbddd9017	-0.108184986
173	0xbdb9938f	-0.09061348
174	0x3b270344	0.0025484124
175	0xbd358a11	-0.044321124
176	0x3db20394	0.08692089
177	0x3d26b83b	0.04070304
178	0x3a298008	0.00064659165
179	0x3cec755d	0.028864557
180	0x3e1ed2b3	0.15510063
181	0x3da41e5a	0.080136016
182	0xbdbc281a	-0.09187336
183	0xbc87ceb4	-0.016578056
184	0x3d3df5c1	0.046376947
185	0x3cd0ecb5	0.025503496
186	0xbd0987a7	-0.033576634
187	0x3db567a5	0.08857659
188	0xbe973d47	-0.29538938
189	0x3c008a6e	0.007845504
190	0xbc1a5188	-0.009418853
191	0xbda2eb0e	-0.079549894
192	0x3d2e9ec4	0.04263188
193	0x3dad2c6e	0.0845574
194	0xbdb0513b	-0.086092435
195	0xbccf447f	-0.025301216
196	0x3d836297	0.06415289
197	0xbe28f6eb	-0.16500442
198	0xbd7dbb81	-0.061946396
199	0xbbc2edb3	-0.005948746
200	0xbce9ddb5	-0.028548101
201	0xbd3fa42a	-0.04678742
202	0x3d65b872	0.056084104
203	0xbdce74c1	-0.10080863
204	0xbdaf4304	-0.08557704
205	0x3e280bfa	0.16410819
206	0xbd270964	-0.04078044
207	0x3d7a6422	0.06113065
208	0x3d0299dd	0.031885017
209	0xbae98959	-0.0017817422
210	0x3b9bdd55	0.0047566094
211	0x3c9ea2f9	0.01936482
212	0x3d8f1520	0.06986451
213	0x3d2afa86	0.041742824
214	0x3b7aa74e	0.0038246694
215	0x3d71e3ee	0.05905526
216	0xbe448a53	-0.19193392
217	0x3c4199bc	0.011816438
218	0x3cfe7715	0.031062642
219	0xbd66d665	-0.056356806
220	0x3deabe8f	0.114621274
221	0x3cccb5c0	0.024989009
222	0x3c192ab6	0.009348562
223	0x3dc4e4aa	0.09613927
224	0xbc6bbacf	-0.0143878
225	0x3dd0451e	0.10169433
226	0xbd404b74	-0.046946958
227	0x3d746c8f	0.059673842
228	0x3d4d1ced	0.050076414
229	0xbc0a3086	-0.00843442
230	0x3dac2b04	0.08406642
231	0x3cbd9612	0.023142848
232	0x3dd72353	0.105047844
233	0xbbad2f61	-0.005285189
234	0x3e0f0848	0.13968003
235	0xbbc44adb	-0.005990369
236	0xbe1cb9a4	-0.15305191
237	0xbcc2c6fb	-0.023776522
238	0xbe1c5434	-0.15266496
239	0xbbe1146d	-0.00686889
240	0x3ce0efeb	0.027458152
241	0xbe187dc4	-0.14891726
242	0x3d7238f2	0.05913634
243	0xbd2d7495	-0.04234751
244	0x3d9f0dab	0.07766279
245	0x3d4e2552	0.05032856
246	0x3d6e99de	0.058252208
247	0xbdd415c4	-0.10355714
248	0xbda8d54f	-0.082438104
249	0x3c92584a	0.017864365
250	0xbdac5801	-0.08415223
251	0x3da1ea31	0.079059966
252	0x3db78ef7	0.08962815
253	0x3d995e65	0.074887075
254	0x3bc6636b	0.006054332
255	0xbd41ec5c	-0.04734455

actor.layer2.bias f4 [128]
0	0xbd81a929	-0.06331093
1	0xbd58ac5e	-0.052898757
2	0x3d0fb17e	0.03508138
3	0xbd06c72c	-0.03290479
4	0x3d19d982	0.037560947
5	0xbde400c5	-0.11132959
6	0xbd274696	-0.0408388
7	0xbc70de2f	-0.01470141
8	0xbc1c2f83	-0.009532812
9	0x3c08de9a	0.008353854
10	0xbca0264f	-0.019549517
11	0xbdd78c4e	-0.10524808
12	0x3d36ed20	0.044659734
13	0x3d821944	0.06352475
14	0x3b92b786	0.004477444
15	0x3d40af2d	0.04704206
16	0xbd4f28c6	-0.050575994
17	0x3d6f2985	0.058389205
18	0xbdb42950	-0.08796942
19	0xbd7cb8bf	-0.061699625
20	0xbd0d4b16	-0.034495436
21	0xbd934c22	-0.071922556
22	0xbd50eed5	-0.051009018
23	0x3c79d776	0.015249124
24	0xbdc57ccb	-0.09642943
25	0x3c159470	0.009129629
26	0xbd08bf0b	-0.033385318
27	0xbde09e72	-0.10967721
28	0xbd19dae5	-0.03756227
29	0xbceab576	-0.02865098
30	0xbdbbd4c5	-0.09171442
31	0xbd2f4ae9	-0.04279605
32	0xbd7712a3	-0.060320508
33	0x3dc5ad2a	0.09652169
34	0xbb0af612	-0.0021203798
35	0xbc206cc5	-0.009791558
36	0xbcbb5db3	-0.022871828
37	0x3dad865a	0.08472891
38	0xbda0e05a	-0.07855292
39	0xbb88dd94	-0.004176805
40	0x3cb8b678	0.022547945
41	0xbd733c89	-0.059383903
42	0x3c209515	0.009801169
43	0x3c857271	0.016289921
44	0x3dffcc6b	0.124901615
45	0x3cb03176	0.02150796
46	0xbd755134	-0.059891894
47	0x3d8f16a8	0.06986743
48	0xbdb35de3	-0.08758142
49	0xbd458ecd	-0.04823189
50	0xbc164118	-0.009170793
51	0x3e11ab18	0.14225423
52	0x3ce0dd0b	0.027449152
53	0xbdb91818	-0.09037799
54	0x3db1a957	0.08674877
55	0xbd07fe45	-0.033201475
56	0xbd76951e	-0.060200803
57	0x3be2683c	0.0069093984
58	0x3be6c9b6	0.007043089
59	0x3d33c7b8	0.04389164
60	0x3c3a15d9	0.011357748
61	0x3dc2cbe5	0.09511546
62	0x3b320b14	0.0027167248
63	0x3c9de7cf	0.019275574
64	0xbccc108f	-0.02491024
65	0xbdb5a9ac	-0.08870253
66	0xbd1bc564	-0.038030043
67	0x3e1171b5	0.14203532
68	0xbd573972	-0.05254502
69	0xbd440cdc	-0.047863826
70	0x3d50364b	0.050833028
71	0x3af14818	0.0018408326
72	0xbda4e577	-0.080515794
73	0xbd823eed	-0.063596584
74	0xbd9232fe	-0.07138632
75	0x3d605ca9	0.054775868
76	0xbd991393	-0.074744366
77	0xbd5f40a7	-0.054505017
78	0x3d945512	0.072427884
79	0xbdb849ec	-0.089984745
80	0xbd022984	-0.031777874
81	0x3b88cc5e	0.004174753
82	0x3d07efa5	0.033187527
83	0x3cae009d	0.021240527
84	0x3d6a4fc0	0.05720496
85	0x3cd4a0a5	0.025955508
86	0xbdc855b5	-0.09781972
87	0x3d6065e1	0.05478466
88	0x3d89d984	0.06730941
89	0xbdf42dbf	-0.11922788
90	0xbd64ac29	-0.055828247
91	0xbdb13760	-0.0865314
92	0xbd83a2cb	-0.06427535
93	0x3d18e89b	0.037331205
94	0x3c14d50c	0.009083997
95	0x3d991c6c	0.07476124
96	0xbb93e3be	-0.004513233
97	0x3d2e178a	0.042502917
98	0x3c54f44c	0.012997698
99	0xbc2d66f5	-0.010583629
100	0xbc03438d	-0.008011711
101	0xbd243057	-0.040085163
102	0x3c19002e	0.009338422
103	0xbd9ef857	-0.07762211
104	0xbcd6ddb8	-0.02622877
105	0xbdaa8c10	-0.08327496
106	0x3c8585de	0.016299184
107	0x3ce35544	0.027750619
108	0xbc36c1db	-0.011154617
109	0x3ddb3301	0.107030876
110	0xbb282792	-0.0025658351
111	0x3ca6a2c5	0.020341286
112	0x3d82cdb1	0.06386889
113	0xbdbbae0c	-0.09164056
114	0xbd45e49e	-0.04831373
115	0x3dad0d76	0.08449833
116	0x3d2cc649	0.042181287
117	0xbd5feea2	-0.054670937
118	0xbd7fd36f	-0.0624575
119	0xbd7070c3	-0.058701288
120	0x3d9e65d6	0.077342674
121	0x3d6fec78	0.058575124
122	0x3d70647a	0.058689572
123	0xbd7c8b5f	-0.061656352
124	0xbd91ccd2	-0.071191445
125	0xbd9457e5	-0.07243327
126	0xbd4eb963	-0.050469767
127	0x3d4cca79	0.04999778

actor.layer3.weight f4 [2, 128]
0	0xbc3b65f6	-0.011437884
1	0x3de628be	0.1123824
2	0x3cbaa040	0.022781491
3	0x3d90639e	0.070502505
4	0x3e1a5d67	0.15074693
5	0x3cb2cbb6	0.021825653
6	0x3dab25f2	0.08356847
7	0x3d0563eb	0.032565992
8	0xbca8c6c1	-0.020602586
9	0x3d255126	0.040360592
10	0xbc9f4d84	-0.019446142
11	0x3d869d8f	0.06573021
12	0x3c98afbb	0.018638482
13	0x3d5269f0	0.05137056
14	0x3da770df	0.08175825
15	0x3e010a7f	0.1260166
16	0x3d9fe64d	0.07807598
17	0xbd3fb522	-0.0468036
18	0xbb1ae92a	-0.0023637512
19	0xbcae661d	-0.021288926
20	0x3c4ab7ec	0.012372952
21	0x3c900377	0.017579777
22	0x3ba4c1bd	0.005027978
23	0x3b596011	0.0033168832
24	0x3d35c5d5	0.04437812
25	0x3da0761d	0.07835028
26	0xbd9bd6fe	-0.07609366
27	0x3ac0eef6	0.0014719653
28	0xbc251297	-0.010075233
29	0x3dc0892c	0.094011635
30	0xbc8738fd	-0.016506666
31	0x3d9e1734	0.077192694
32	0x3c42a92b	0.011881153
33	0x3e0df76b	0.13863914
34	0x3de3f92b	0.111315094
35	0xbd19c55d	-0.037541736
36	0xbd0cb1fb	-0.034349423
37	0x3da514d2	0.08060612
38	0x3d0c1c54	0.034206703
39	0x3cb85d9f	0.02250558
40	0xbd1e9f1d	-0.03872596
41	0xbc87aa25	-0.016560623
42	0xbd5eeffb	-0.054428082
43	0xbd432247	-0.04764011
44	0xbe01c1e8	-0.12671626
45	0xbd5f70a1	-0.05455077
46	0x3b8f7b19	0.004378688
47	0x3aa70347	0.0012742066
48	0xbd9184f2	-0.071054354
49	0xbd40e87b	-0.04709671
50	0x3dbfdcb6	0.09368269
51	0xbb8b8191	-0.004257389
52	0xbdaf6235	-0.085636534
53	0xbc03deac	-0.008048695
54	0xbdcbb35a	-0.09946318
55	0x3d98805a	0.07446356
56	0x3d398435	0.045292098
57	0xbced256c	-0.028948508
58	0x3db9773a	0.09055944
59	0xbcbbde20	-0.022933066
60	0xbc64eb4d	-0.013972116
61	0xbcb8224e	-0.022477295
62	0x3d4dcc27	0.050243523
63	0xbccdb46e	-0.02511045
64	0xbd7a5cf3	-0.0611238
65	0x3d0c74e0	0.03429115
66	0xbd5ca16d	-0.053864885
67	0xbe08d47d	-0.13362308
68	0x3d6e0afc	0.058115944
69	0x3d890ad2	0.06691517
70	0x3d92cdaf	0.07168137
71	0x3d10cdc1	0.035352472
72	0xbca13a9b	-0.019681266
73	0x3d4bbd1d	0.0497409
74	0x3d6dbf2f	0.058043655
75	0x3cfc1f45	0.03077663
76	0xbd44e962	-0.048074134
77	0xbc34d806	-0.011037832
78	0xbd4018d7	-0.04689869
79	0x3d307a40	0.043085337
80	0xbda6523d	-0.081211545
81	0x3db2f792	0.087386265
82	0x3dcc191f	0.09965729
83	0x3d35a657	0.044348087
84	0xbca15f82	-0.019698862
85	0x3d5207bc	0.051276907
86	0xbd5e9a83	-0.054346573
87	0x3d956908	0.07295424
88	0xbcf2ce2a	-0.029639322
89	0x3cb24530	0.021761507
90	0x3d86ac78	0.065758646
91	0xbd00c8c7	-0.031441476
92	0x3d0b7014	0.034042433
93	0xbd545c46	-0.05184581
94	0x3d08b2ff	0.03337383
95	0xbcf275ca	-0.029597182
96	0x3bfd666f	0.0077331583
97	0xbc2ab95c	-0.01042017
98	0xbd583e2f	-0.052793678
99	0x3d82cd41	0.06386805
100	0xbc587fad	-0.013214034
101	0xbd16072b	-0.03662793
102	0x3b01ec42	0.0019824659
103	0x3bad4972	0.0052882964
104	0x3d4932bd	0.049120653
105	0x3db87219	0.090061374
106	0xbd1f1f76	-0.038848363
107	0xbb91d601	-0.00445056
108	0x3cf84962	0.03030843
109	0xbdd5f5f9	-0.10447306
110	0x3c302d43	0.010752979
111	0xbdf30fdc	-0.11868259
112	0xbd96fbf2	-0.073722735
113	0x3d4c5091	0.04988152
114	0x3d84b74a	0.06480272
115	0xbc4b7511	-0.0124180475
116	0xbdc2cf0e	-0.09512149
117	0xbd405f2a	-0.046965756
118	0x3d89a420	0.067207575
119	0xbd361ab9	-0.04445908
120	0xbdad8dd4	-0.08474317
121	0xbd8a9dda	-0.06768389
122	0xbd89991b	-0.06718656
123	0xbcb858e4	-0.022503324
124	0xbd0d5b44	-0.034510866
125	0xbd194b02	-0.03742505
126	0x3b914f49	0.0044345004
127	0xbd8c1715	-0.0684034
128	0xbd1412cb	-0.036150735
129	0xbcc3ae38	-0.023886785
130	0x3c3651cb	0.011127899
131	0x3cc0c676	0.023532134
132	0xbdcfc814	-0.10145584
133	0x3d02c7ce	0.03192883
134	0xbd148cf4	-0.036267236
135	0x3c332028	0.01093296
136	0xbc775a7a	-0.015097255
137	0xbd2036e2	-0.03911484
138	0x3cb298d2	0.021801386
139	0x3d0b80c6	0.034058355
140	0x3df5b05c	0.119965285
141	0xbdb58bba	-0.08864541
142	0xbd3fab90	-0.046794474
143	0xbc9a5358	-0.01883857
144	0x3d2f260d	0.042760897
145	0xbdcad13d	-0.0990319
146	0x3d0c2131	0.03421134
147	0xbd3f8ef5	-0.046767194
148	0xbc49fc04	-0.012328152
149	0xbd108930	-0.035287082
150	0xbc650946	-0.013979262
151	0xbdf5c727	-0.12000876
152	0x3d1d7681	0.038443092
153	0xbd6d0731	-0.057868186
154	0xbcb9b626	-0.022669863
155	0x3d342712	0.043982573
156	0x3cf94394	0.030427732
157	0xbe038438	-0.12843406
158	0x3d2a35c3	0.041555177
159	0x3d822568	0.06354791
160	0x3b1c9282	0.0023891036
161	0xbd9c1890	-0.076218724
162	0xbdbef919	-0.09324855
163	0xbd888ac0	-0.066670895
164	0x3cdb3f51	0.02676359
165	0xbe017f6b	-0.12646262
166	0xbc3dabc3	-0.011576596
167	0xbd13ca61	-0.036081675
168	0x3d1205a0	0.035649896
169	0xbd45121a	-0.048112966
170	0xb9e7d6c4	-0.00044219766
171	0xbc39fde3	-0.011352035
172	0x3dec876a	0.11549266
173	0x3d4602ae	0.0483424
174	0x3bd8fe4a	0.0066221105
175	0x3c213399	0.009838962
176	0xbd9e811f	-0.07739472
177	0xbc299307	-0.010349995
178	0xbc9e6092	-0.019333158
179	0x3e0f94f2	0.14021662
180	0xbb144984	-0.0022626827
181	0xbd1ecb46	-0.038768075
182	0x3d95b219	0.0730936
183	0x3d137969	0.036004458
184	0xbda7ccd0	-0.08193362
185	0x3c6f099d	0.014589694
186	0xbda9c5ed	-0.082897045
187	0xbc82d185	-0.015969047
188	0xbd9de964	-0.07710531
189	0x3dbafd1e	0.091303095
190	0x3d0ae99c	0.033914194
191	0xbd1b8e75	-0.037977654
192	0x3db4d359	0.08829374
193	0x3be5914b	0.0070058457
194	0xbcd3326f	-0.025780885
195	0x3df06078	0.1173715
196	0x3d522526	0.05130496
197	0xbd921211	-0.07132352
198	0x3d014e16	0.03156861
199	0x3cb4ffeb	0.022094687
200	0x3a80cd75	0.0009826856
201	0xbdc2f3d9	-0.095191665
202	0x3c73b313	0.014874238
203	0xbdb72071	-0.089417346
204	0x3d0d13c0	0.034442663
205	0xbd92dd5d	-0.07171128
206	0x3d2c69d1	0.042093102
207	0x3ca85530	0.020548433
208	0xbd910f94	-0.070830494
209	0xbd31689e	-0.04331266
210	0xbdc951cb	-0.09830054
211	0xbdd78ee4	-0.10525301
212	0xbdb2e4f7	-0.08735078
213	0x3d2a7f30	0.0416252
214	0xbc51443b	-0.012772615
215	0xbc2a1850	-0.010381773
216	0xbdcd8d09	-0.10036666
217	0x3d3b5062	0.045730956
218	0x3d818ccd	0.06325684
219	0xbcde99e5	-0.027172992
220	0xbd6f6db0	-0.058454216
221	0xbd5aad04	-0.053387657
222	0xbd87f021	-0.06637598
223	0xbd46f540	-0.048573732
224	0xbc660dee	-0.014041407
225	0xbb5ac014	-0.0033378648
226	0x3d126406	0.03573992
227	0xbdbac6b1	-0.09119929
228	0xbd727faf	-0.0592038
229	0xbd37d19e	-0.04487764
230	0xbdaa458a	-0.08314045
231	0xbd147733	-0.03624649
232	0xbcbc1f8e	-0.022964265
233	0x3bbfd714	0.0058544967
234	0xbd4b3954	-0.04961522
235	0x3a310547	0.00067528005
236	0x3cf4a0ca	0.029861826
237	0x3d773fdb	0.06036363
238	0x3d76c564	0.06024684
239	0x3d762ba0	0.060100198
240	0xbd01a246	-0.031648897
241	0x3c1a14a6	0.009404337
242	0xbc45eb14	-0.012079973
243	0x3cd5200a	0.026016254
244	0x3cbe3733	0.02321968
245	0xbdddcaba	-0.10829683
246	0x3c16db40	0.009207547
247	0xbd33c4b4	-0.043888763
248	0x3d371883	0.04470111
249	0x3d8c846b	0.06861194
250	0xbc9a4234	-0.018830396
251	0xbce92d7e	-0.028464075
252	0xbdac1ab1	-0.084035285
253	0xbda1c14a	-0.07898195
254	0xbcd1ed81	-0.025625946
255	0x3d2f9f13	0.042876314

actor.layer3.bias f4 [2]
0	0xbe02c710	-0.12771249
1	0x3d79395f	0.06084573

critic.layer1.weight f4 [128, 4]
0	0x3ef50df0	0.47862196
1	0xbe9d9a44	-0.30781758
2	0xbe795614	-0.24349242
3	0xbeae8d8e	-0.34092373
4	0x3eeb5e6b	0.45970473
5	0x3e5dbd61	0.21654274
6	0x3ed83aa2	0.42232233
7	0xbd538d20	-0.05164826
8	0xbf0aaa76	-0.5416635
9	0xbe457e5b	-0.19286482
10	0xbea34a3a	-0.31892568
11	0xbe11c47b	-0.14235108
12	0xbe36b408	-0.17842114
13	0x3eb7a979	0.35871485
14	0xbe9627d6	-0.29327267
15	0x3ece8942	0.40339094
16	0x3e4972b0	0.19672656
17	0xbe953006	-0.291382
18	0xbee803e8	-0.4531548
19	0xbee0874f	-0.43853232
20	0xbe015233	-0.12629013
21	0xbdfeb73e	-0.124372944
22	0xbdf5a7c9	-0.11994893
23	0xbefbc5fa	-0.49174482
24	0x3ed71fb1	0.42016366
25	0xbeb4a465	-0.35281673
26	0x3d99d074	0.075104624
27	0x3dc41c5c	0.095757216
28	0x3edc4533	0.43021545
29	0xbebe57e3	-0.37176427
30	0xbe70fd5f	-0.23534153
31	0xbe98b03e	-0.29821962
32	0xbec219b5	-0.37910238
33	0xbe774be5	-0.24150045
34	0xbe6a65c2	-0.2289038
35	0x3c87926e	0.016549315
36	0x3e7eb34e	0.24873087
37	0xbe6fc24f	-0.23413967
38	0x3d9a4ea8	0.07534534
39	0xbf10facc	-0.56632686
40	0xbeca615d	-0.39527407
41	0xbdbedfb9	-0.093200155
42	0x3c80b1fb	0.015709868
43	0x3e634174	0.22192937
44	0x3dff0406	0.12451939
45	0x3e53b76f	0.20675443
46	0xbd3ae18d	-0.04562526
47	0xbe111483	-0.14167981
48	0x3dec705e	0.1154487
49	0xbd983fcf	-0.074340455
50	0x3e3db532	0.18526152
51	0x3ec24348	0.37941957
52	0x3ebd9ee4	0.37035286
53	0x3e4bf3dc	0.19917244
54	0x3ead0841	0.3379536
55	0x3ef8fae1	0.48628905
56	0xbe8db13f	-0.2767429
57	0xbe9eaec2	-0.30992705
58	0xbdb14c72	-0.08657159
59	0xbe7fa89f	-0.24966668
60	0xbd8cb4de	-0.06870435
61	0xbeea69d8	-0.45783877
62	0x3e8dbbf6	0.27682465
63	0xbe5536f9	-0.20821752
64	0x3c07a182	0.008278253
65	0xbee716cb	-0.45134577
66	0x3ef27376	0.47353715
67	0x3e282b60	0.16422796
68	0x3f002fc6	0.50072896
69	0x3e5b9076	0.21441826
70	0x3c27d38e	0.01024331
71	0x3d8c25bf	0.06843137
72	0x3e6d532d	0.2317626
73	0xbe8bbe30	-0.2729354
74	0x3e2c61ee	0.16834232
75	0xbebca69c	-0.36845863
76	0x3ed62d8f	0.41831633
77	0x3d7cfcbd	0.061764468
78	0xbee261c8	-0.44215226
79	0x3e93d161	0.2887068
80	0xbddec0c4	-0.10876611
81	0xbe994f0c	-0.2994312
82	0xbe5a97a8	-0.21346915
83	0xbe520300	-0.20508957
84	0xbe814d71	-0.25254396
85	0xbed685f9	-0.41899088
86	0xbe3d33f6	-0.18476853
87	0xbcbefe79	-0.023314701
88	0xbf00da91	-0.50333506
89	0xbc2f921a	-0.010715986
90	0xbef1755e	-0.47159857
91	0xbe4bbcde	-0.19896266
92	0xbec73cb2	-0.38913494
93	0x3eb25bcc	0.3483566
94	0x3dee68a4	0.11641052
95	0xbdf17500	-0.11789894
96	0xbe1b4002	-0.15161136
97	0xbe86311a	-0.26209337
98	0xbe3b2a96	-0.18277964
99	0xbe5f4cff	-0.21806715
100	0x3f18e483	0.5972368
101	0xbe2e0574	-0.16994268
102	0xbe6516dc	-0.22372001
103	0xbe41de55	-0.18932469
104	0xbda80fe5	-0.08206157
105	0xbea7a0f3	-0.32739982
106	0x3cc27b26	0.023740362
107	0x3e986130	0.29761648
108	0x3ef24104	0.47315228
109	0xbdedd3b2	-0.11612643
110	0xbee768b7	-0.4519708
111	0xbefb51b3	-0.4908577
112	0xbe2abe87	-0.16674243
113	0xbda9f9d0	-0.08299601
114	0x3e082c70	0.13298202
115	0xbe223f43	-0.15844445
116	0xbe03c3dc	-0.12867683
117	0xbdf9da24	-0.1219981
118	0xbe9df914	-0.30854094
119	0xbebe9bbc	-0.3722819
120	0xbe81144d	-0.252108
121	0xbe852273	-0.26002845
122	0x3dda0e62	0.106472746
123	0x3e706af4	0.234783
124	0x3eb31f56	0.34984845
125	0xbf14a82c	-0.5806911
126	0xbef769c0	-0.48322868
127	0xbea7ad24	-0.32749283
128	0xbee0e797	-0.4392669
129	0xbe526e41	-0.20549871
130	0xbd2cd32c	-0.042193577
131	0xbe629897	-0.22128521
132	0xbe2021d0	-0.15637898
133	0x3edb460d	0.42826882
134	0x3ec27ffe	0.37988275
135	0xbed2349e	-0.4105577
136	0xbd13d60c	-0.036092803
137	0xbd09da93	-0.033655714
138	0x3ed89ae4	0.42305672
139	0xbe94dfe8	-0.29077077
140	0xbeba601d	-0.36401454
141	0x3d31e350	0.043429673
142	0xbe1110a5	-0.14166506
143	0x3c90a381	0.01765609
144	0x3dbe219d	0.09283755
145	0xbeb6fac7	-0.35738203
146	0x3eddd2e5	0.43324962
147	0x3e87d49f	0.26529405
148	0x3ee98a40	0.4561329
149	0x3e977c5e	0.29587072
150	0x3e8858d6	0.26630276
151	0xbdf22bb5	-0.11824743
152	0xbebc7810	-0.3681035
153	0xbd4c649c	-0.049900636
154	0x3d54ef7b	0.0519862
155	0xbe8b60a0	-0.27222157
156	0xbec7fd3a	-0.39060384
157	0xbe393a97	-0.18088757
158	0xbf248ad4	-0.64274335
159	0xbe17d631	-0.14827801
160	0x3eed2ca6	0.46323127
161	0x3edf8b3d	0.43660918
162	0xbe779d3c	-0.24181074
163	0x3e673ee0	0.22582579
164	0x3eeabbbb	0.45846352
165	0xbe9c3874	-0.3051182
166	0xbe5e5dc9	-0.21715464
167	0x3d702ced	0.058636595
168	0xbdccf649	-0.10007913
169	0x3c7b1419	0.015324616
170	0x3da56978	0.08076757
171	0xbeef408e	-0.4672894
172	0xbe20ef99	-0.15716399
173	0xbeb362db	-0.35036358
174	0x3d981d6d	0.074274875
175	0xbf156027	-0.5834984
176	0x3e7803f6	0.24220261
177	0x3efd2989	0.4944575
178	0x3ead64f1	0.33866075
179	0xbd84e633	-0.064892195
180	0x3f194266	0.5986694
181	0x3e13f754	0.14449817
182	0x3e6f2889	0.23355307
183	0x3c8767fa	0.016529072
184	0xbe3ff683	-0.1874638
185	0x3e8f3d1c	0.2797631
186	0x3dfa6790	0.12226784
187	0xbd2c2d3a	-0.04203532
188	0xbeb4a823	-0.35284528
189	0x3ec86fcf	0.39147803
190	0x3e8b1b29	0.2716916
191	0x3b834412	0.0040059173
192	0x3e5f58a2	0.21811154
193	0xbf0130a3	-0.5046484
194	0xbc5dc200	-0.013535023
195	0xbe2d4082	-0.16919139
196	0x3ecb4797	0.39703056
197	0x3efcd72c	0.49382913
198	0x3ee3b5e2	0.44474703
199	0xbe81179b	-0.25213322
200	0xbefe9d11	-0.49729207
201	0x3e7423ec	0.23841828
202	0xbe37b340	-0.17939472
203	0xbe391ee5	-0.18078192
204	0x3e90365a	0.28166467
205	0x3e089b15	0.13340409
206	0xbea5d710	-0.32390642
207	0xbcf0b9fc	-0.02938556
208	0xbe439065	-0.19098051
209	0x3dfd1fb0	0.123595595
210	0x3e630de9	0.22173275
211	0x3e4f3fee	0.20239231
212	0xbec912ae	-0.39272064
213	0xbe1ae922	-0.15127996
214	0x3ee7a8c3	0.45245942
215	0x3e68bd8e	0.2272856
216	0x3e1a0561	0.15041114
217	0x3eb24bbe	0.34823412
218	0xbcd3cf55	-0.0258557
219	0x3ef02266	0.46901244
220	0xbe7718f6	-0.24130616
221	0x3df6c4ab	0.1204923
222	0xbf1f07f1	-0.6212149
223	0xbea6076c	-0.32427537
224	0x3f04b192	0.5183345
225	0xbe5650ab	-0.2092921
226	0xbe0c9803	-0.13729863
227	0xbe4f7742	-0.20260337
228	0x3e443766	0.19161758
229	0x3e2304ac	0.15919751
230	0xbf2047cb	-0.6260955
231	0xbeca9040	-0.3956318
232	0x3ec12dd7	0.37730286
233	0xbec2b403	-0.38027963
234	0x3ddc9ecb	0.10772475
235	0xbe01974a	-0.12655368
236	0xbecd01a3	-0.4004031
237	0x3ed3b3cb	0.4134811
238	0x3ec54e96	0.3853652
239	0x3e93abe9	0.28842095
240	0xbda7750b	-0.08176621
241	0xbe457bff	-0.19285582
242	0xbec89faf	-0.3918433
243	0x3d9172e9	0.071019955
244	0xbef2dfb8	-0.4743631
245	0x3eaa6689	0.33281353
246	0xbd679b3c	-0.056544527
247	0x3e5155ed	0.20442934
248	0x3d06b372	0.032885976
249	0xbd556cf5	-0.052105863
250	0xbc4dd489	-0.012562879
251	0x3de16803	0.11006167
252	0xbf08c9f7	-0.53433174
253	0xbede5d2a	-0.43430454
254	0x3f004f2f	0.50120825
255	0x3eeef70e	0.46672863

critic.layer1.bias f4 [128]
0	0x3e947e64	0.29002678
1	0x3b4bfe2b	0.0031126838
2	0xbc5439b5	-0.012953212
3	0x3ebd1b0f	0.36934707
4	0xbefeb90e	-0.4975056
5	0x3eb3defd	0.35131064
6	0xbebbd212	-0.36683708
7	0xbcfd29a6	-0.030903649
8	0x3e8fb129	0.2806485
9	0xbe1b84ba	-0.1518735
10	0xbc108f91	-0.008823291
11	0x3ebfe523	0.37479505
12	0x3c96f90b	0.0184293
13	0xbe3057ec	-0.1722104
14	0x3eadf4c0	0.33975792
15	0x3e776a17	0.24161564
16	0xbe3489cb	-0.17630689
17	0xbd147e32	-0.03625316
18	0xbcfaaea1	-0.030600848
19	0xbf04dcfc	-0.51899695
20	0x3e293087	0.16522418
21	0xbe18099c	-0.14847416
22	0xbd509a0e	-0.050928168
23	0x3eb1f8ac	0.34760034
24	0x3e8f784a	0.2802146
25	0xbca875ff	-0.020564077
26	0x3e7afcbb	0.24510472
27	0xbe12a4c9	-0.14320673
28	0x3ea5fa00	0.32417297
29	0x3e96e2be	0.29469866
30	0xbeed8887	-0.46393225
31	0x3e5831c9	0.21112742
32	0xbce53832	-0.027980898
33	0xbe56e45f	-0.20985554
34	0x3e4bc568	0.19899523
35	0x3e80f4ad	0.25186673
36	0xbe2d0832	-0.16897658
37	0xbde9ea53	-0.11421647
38	0x3ea56a67	0.3230774
39	0xbcdb1baa	-0.02674659
40	0xbd061b61	-0.032740954
41	0xbedd7cf2	-0.43259388
42	0x3db0186e	0.085984096
43	0xbe1f32e4	-0.15546757
44	0xbe841bfa	-0.25802594
45	0xbd5f09c8	-0.054452688
46	0xbdf215b9	-0.118205495
47	0xbec326c2	-0.38115507
48	0xbd91496a	-0.07094081
49	0xbef5c650	-0.48002863
50	0xbec63f96	-0.38720387
51	0x3e971ef4	0.29515803
52	0xbeb4c7ae	-0.35308594
53	0x3e87dca8	0.26535535
54	0xbd8890b4	-0.06668225
55	0x3e531bb9	0.20616044
56	0xbced3562	-0.028956119
57	0xbe9878a2	-0.29779536
58	0xbeaf43b4	-0.3423134
59	0xbd217281	-0.03941584
60	0x3e0a38d6	0.13498244
61	0xbe97f64c	-0.29680097
62	0x3e35c34d	0.17750283
63	0xbe7ed8dd	-0.24887414
64	0x3e731c7c	0.23741335
65	0xbeeb621e	-0.45973295
66	0xbe8df06d	-0.27722493
67	0x3e26f102	0.16302875
68	0xbc7686c7	-0.015046782
69	0x3ecce7c7	0.40020582
70	0x3ea91e44	0.33030903
71	0x3e06bb9d	0.13157506
72	0xbcdf8bb1	-0.02728829
73	0xbe2b1a56	-0.16709265
74	0xbedfbe2b	-0.43699774
75	0xbd0ef347	-0.034899976
76	0x3ec4d040	0.38440132
77	0x3eb58879	0.35455683
78	0x3d5c2dd6	0.05375465
79	0xbea9454c	-0.33060682
80	0xbc9ae0c0	-0.018905997
81	0xbbff8ce9	-0.00779878
82	0x3d824f27	0.06362753
83	0xbe91eeb4	-0.2850243
84	0x3e89f97f	0.26948163
85	0xbd1ece64	-0.03877105
86	0xbe40b328	-0.18818343
87	0xbd05c265	-0.032656092
88	0x3e8fa1ef	0.28053233
89	0x3e347380	0.17622185
90	0x3d31a801	0.04337311
91	0xbd3284f1	-0.043583814
92	0xbec7af48	-0.39000916
93	0xbcfa7468	-0.030573085
94	0xbdcb60b1	-0.09930552
95	0xbd20a475	-0.03921934
96	0xbd9dea0c	-0.077106565
97	0xbec3efd0	-0.382689
98	0x3e9c99f4	0.30586207
99	0xbd809786	-0.06278901
100	0x3eade00d	0.3396
101	0x3dda5fb1	0.10662783
102	0x3e520195	0.20508416
103	0xbee8f522	-0.45499521
104	0xbd9f043d	-0.0776448
105	0xbe980cc9	-0.29697254
106	0x3ea9a5d7	0.33134338
107	0xbd0d7816	-0.03453835
108	0xbe3ec707	-0.1863061
109	0x3e99e180	0.30054855
110	0xbef0c7b8	-0.47027373
111	0x3e7cee05	0.24700172
112	0xbe53ac4c	-0.20671195
113	0x3e1502f2	0.14551905
114	0xbd56e355	-0.052462894
115	0xbd140aa4	-0.03614296
116	0x3e5221ab	0.20520656
117	0xbeeabd1b	-0.458474
118	0x3e5bb09f	0.21454094
119	0x3eb059fb	0.3444365
120	0x3d74afba	0.0597379
121	0x3eb6a2aa	0.35670978
122	0x3e2ebc8f	0.17064117
123	0x3e7a11e8	0.24420893
124	0x3e9d83c8	0.30764604
125	0xbd8bde03	-0.06829455
126	0x3e979ec6	0.29613322
127	0x3dbe568c	0.09293851

critic.layer2.weight f4 [128, 128]
0	0x3d80a0bf	0.0628066
1	0x3dbcdf6b	0.09222301
2	0x3d9db92b	0.077013336
3	0x3c8f4b55	0.017491976
4	0x3ce4763e	0.027888414
5	0xbc8ccc96	-0.017187398
6	0xbd7e0905	-0.06202032
7	0x3e12d626	0.14339504
8	0x3d36c973	0.04462571
9	0x3d9d5292	0.07681765
10	0xbd61c022	-0.055114873
11	0xbd380778	-0.044928998
12	0x3c6ad3a7	0.014332688
13	0x3e09258e	0.13393232
14	0xbccbcd73	-0.02487824
15	0xbd67a6e8	-0.05655566
16	0x3d84f6fc	0.06492421
17	0xbb7d60b2	-0.0038662371
18	0x3cf4fa73	0.02990458
19	0x3d6040dc	0.054749355
20	0xbdd19a90	-0.102345586
21	0xbda211f3	-0.0791358
22	0xbd36324e	-0.044481568
23	0xbd9216f5	-0.07133285
24	0xbd52ffe5	-0.05151357
25	0x3dab2eba	0.08358522
26	0xbd45bc58	-0.04827532
27	0x3d81dc64	0.06340864
28	0x3cbb7d18	0.022886798
29	0x3d981ff1	0.07427967
30	0x3d2c1d12	0.04201991
31	0xbd89be17	-0.0672571
32	0x3dac5875	0.08415309
33	0xbd6121ef	-0.054964002
34	0x3d9019d9	0.0703618
35	0xbd2ab176	-0.041673146
36	0x3d268c1d	0.040660966
37	0x3dd06f35	0.10177461
38	0x3d800e35	0.0625271
39	0x3d3314c1	0.043720964
40	0x3ca6771b	0.020320466
41	0x3d4f84de	0.05066382
42	0xbd154b6d	-0.036448885
43	0x3da600b9	0.081056066
44	0xbc39d045	-0.011341159
45	0x3df539e1	0.1197393
46	0xbdc3e986	-0.095660254
47	0xbc3cddaa	-0.011527458
48	0x3d2632d0	0.040575802
49	0xbb40a8ec	-0.002939756
50	0x3ce1ba74	0.027554728
51	0x3d798d84	0.060925975
52	0x3d5d6b45	0.05405738
53	0xbc8a7aa2	-0.016904179
54	0x3c87777e	0.01653647
55	0x3ca3375e	0.019923862
56	0x3de1c2a7	0.11023455
57	0x3c856ffe	0.016288754
58	0xbdc673e1	-0.09690071
59	0x3d32b166	0.04362621
60	0x3c14e95d	0.009088841
61	0x3d613041	0.05497766
62	0x3c440c2c	0.011965793
63	0xbcb41a9c	-0.021985345
64	0x3db828c9	0.08992154
65	0x3d9b2026	0.07574491
66	0xbd6c8bc1	-0.057750467
67	0xbd5cd6b8	-0.05391571
68	0x3ce0c5ba	0.027438033
69	0xbda04f76	-0.07827656
70	0x3d033ea6	0.032042168
71	0x3b0ceebe	0.0021504606
72	0x3d99b18c	0.075045675
73	0xbd190276	-0.037355863
74	0x3dabbaa8	0.08385211
75	0x3dca6a36	0.098835394
76	0xbc496dfc	-0.012294289
77	0x3d361431	0.04445285
78	0x3cbc2545	0.02296699
79	0x3dedcd06	0.11611371
80	0x3d688bcd	0.05677395
81	0x3d815a1d	0.06316016
82	0xbd639c49	-0.055568967
83	0x3d858f5c	0.06521484
84	0x3d372056	0.044708572
85	0x3d7826ea	0.060583986
86	0xbd959156	-0.07303111
87	0x3bd56143	0.0065118386
88	0xbdd4e61f	-0.103954546
89	0xbcac0d12	-0.021002326
90	0xbd72d581	-0.059285644
91	0x3de4757d	0.111552216
92	0x3d85b695	0.065289654
93	0x3c399eee	0.011329396
94	0x3d53ba42	0.0516913
95	0x3e0695a0	0.13143015
96	0xbd247ea6	-0.040159844
97	0x3d1ce73d	0.038306464
98	0x3d46aca8	0.0485045
99	0x3e3e08cb	0.18558042
100	0xbcc49fff	-0.024002073
101	0x3df7b0fe	0.120943055
102	0xbd7e3e82	-0.06207133
103	0xbd5354dd	-0.051594604
104	0xbcde158f	-0.02710989
105	0x3d4f5364	0.050616637
106	0xbda4d9ea	-0.08049376
107	0xbb8f1de8	-0.004367579
108	0x3dab646c	0.08368763
109	0x3d4b3769	0.04961339
110	0x3d2f0f06	0.042738937
111	0xbdaebe75	-0.085324205
112	0x3d80346f	0.06260001
113	0xbce8cc89	-0.028417842
114	0x3d9c2fdc	0.07626316
115	0x3e3b23d7	0.1827539
116	0x3d27add5	0.040937264
117	0x3d722dce	0.059125714
118	0x3d99c7ff	0.07508849
119	0x3d863eb5	0.06554929
120	0xbd8b8f1b	-0.068144046
121	0xbd8ffd92	-0.070307866
122	0xbd5845e1	-0.052801017
123	0x3ccb1404	0.024789818
124	0x3d8ed7f5	0.06974784
125	0xbc9274b9	-0.017877923
126	0x39961c55	0.00028631339
127	0x3c2b97fb	0.010473247
128	0x3dc1b91e	0.094591364
129	0xbd04d7b9	-0.03243229
130	0xbe3f6670	-0.1869142
131	0x3d1aa4f3	0.037754964
132	0x3c528a08	0.012850292
133	0x3d965dc1	0.07342101
134	0xbda36724	-0.07978657
135	0xbe490b6b	-0.19633262
136	0xbc45c23e	-0.012070237
137	0xbdedad64	-0.11605337
138	0x3d23d23c	0.039995417
139	0x3d477357	0.04869398
140	0xbdb6cfb2	-0.089263335
141	0xbe11d376	-0.14240822
142	0x3d8f9c5f	0.07012247
143	0x3cf8414b	0.030304572
144	0xbd6e2d9c	-0.058148965
145	0xbda8e055	-0.08245913
146	0xbd1f7bb6	-0.03893634
147	0xbda3e7bd	-0.08003185
148	0x3db43b4e	0.08800374
149	0xbde8119b	-0.11331483
150	0xbdddc8cc	-0.108293146
151	0x3d7a193a	0.061059214
152	0xbcdd941e	-0.027048167
153	0xbe12625a	-0.1429533
154	0xbd47583c	-0.04866813
155	0xbdde484d	-0.10853634
156	0x3da3d391	0.079993375
157	0x3d7d44a3	0.061833035
158	0xbd07d64f	-0.033163365
159	0x3c92696b	0.017872533
160	0xbe277748	-0.16354096
161	0x3cab7e96	0.020934384
162	0x3d4b6d6e	0.049664907
163	0x3d8ab88e	0.06773482
164	0xbd7a07b1	-0.06104249
165	0xbda5c7b5	-0.08094732
166	0x3d96a209	0.073551245
167	0xbe2b92a4	-0.16755158
168	0xbe010f8f	-0.12603591
169	0xbc61c407	-0.013779647
170	0xbc115dfe	-0.008872507
171	0xbe819d64	-0.25315392
172	0xbdcc936e	-0.099890575
173	0xbe4a8800	-0.19778442
174	0xbd92643b	-0.07148024
175	0xbd50ce94	-0.05097826
176	0xbcd47f3c	-0.025939576
177	0xbde059c2	-0.1095462
178	0xbe00e74b	-0.12588231
179	0xbd69c1fe	-0.05706977
180	0xbd990743	-0.07472088
181	0xbc6af337	-0.0143402135
182	0xbd941393	-0.07230296
183	0xbc3278ef	-0.010893091
184	0xbe64d048	-0.22345078
185	0xbddd3589	-0.10801227
186	0xbdd33678	-0.103131235
187	0xbe18c13c	-0.14917463
188	0x3ce3dd01	0.027815344
189	0xbe1f72a5	-0.15571077
190	0xbd862ddd	-0.065517165
191	0x3c80a03a	0.015701402
192	0x3cd7f29a	0.026360799
193	0xbd26fcbf	-0.04076838
194	0xbcc97f24	-0.024596758
195	0xbd587929	-0.052849922
196	0xbc220da2	-0.009890946
197	0x3d902332	0.07037963
198	0x3bf7479b	0.007546378
199	0x3d8cc41b	0.06873342
200	0xbe678354	-0.22608691
201	0xbe187930	-0.1488998
202	0x3cbaa7fb	0.022785177
203	0xbe270ba7	-0.16313039
204	0x3d7cbc5d	0.061703075
205	0x3d450f16	0.04811009
206	0x3d90f57a	0.07078071
207	0xbde740d5	-0.112916626
208	0xbe2be07f	-0.16784857
209	0xbd7befe6	-0.06150808
210	0x3adee2c4	0.0017004837
211	0xbdd5cb46	-0.10439162
212	0xbd253588	-0.040334255
213	0xbe382478	-0.17982662
214	0xbcb1bc4d	-0.021696234
215	0xbd95800f	-0.07299816
216	0xbd7090a4	-0.05873169
217	0xbd98de99	-0.07464332
218	0x3d528028	0.05139175
219	0xbdd46fd2	-0.103728905
220	0xbd1a1efb	-0.0376272
221	0xbe176030	-0.14782786
222	0xbe24e8e4	-0.16104466
223	0xbe5d2b79	-0.21598615
224	0x3caf23ad	0.021379316
225	0x3da58b47	0.08083206
226	0xbd0b5812	-0.034019537
227	0xbe148a55	-0.14505894
228	0x3d2ecc67	0.042675402
229	0xbd683a4b	-0.056696218
230	0x3ca4ec23	0.02013213
231	0x3d7762f0	0.06039709
232	0x3c48ea4c	0.012262892
233	0xbe0a723a	-0.13520136
234	0x3d38dea1	0.04513419
235	0xbdbca4ea	-0.09211142
236	0xbcdaf145	-0.026726374
237	0x3d95cfff	0.07315063
238	0xbd3269bc	-0.043557867
239	0xbd320198	-0.04345855
240	0xbbbddd6f	-0.005794219
241	0xbd673a71	-0.05645222
242	0xbdd50136	-0.104006216
243	0xbe772e85	-0.2413884
244	0x3c37c6fe	0.011216877
245	0x3d1f96d8	0.038962215
246	0xbc988ce2	-0.018621866
247	0x3c8994bd	0.016794557
248	0xbda88570	-0.08228576
249	0x3d813b7e	0.06310175
250	0xbd02051e	-0.03174316
251	0xbbbf585c	-0.0058393907
252	0x3d530a8d	0.051523734
253	0xbd9bdbdf	-0.076102965
254	0xbce02277	-0.027360184
255	0xbc3e8a0f	-0.011629595

critic.layer2.bias f4 [128]
0	0xbd3a2bc3	-0.04545189
1	0x3d9770a5	0.07394532
2	0x3bb37116	0.0054761274
3	0xbdab9634	-0.08378258
4	0x3d8c6ae8	0.06856328
5	0x3d419f09	0.04727081
6	0x3d9f5a35	0.077808775
7	0xbdb00fe6	-0.085967824
8	0x3d19e73a	0.03757403
9	0x3cd26e51	0.025687369
10	0xbd4875bc	-0.048940405
11	0xbdca547f	-0.098793976
12	0x3d5004a7	0.050785687
13	0x3d77647f	0.060398575
14	0x3d1f2221	0.038850907
15	0xbb8309a8	-0.003998954
16	0x3dd58646	0.10426001
17	0x3e021cc7	0.1270629
18	0xbd4ed1cb	-0.050493043
19	0xbd12f9a4	-0.035882607
20	0x3bd9b11c	0.0066434275
21	0x3ca7290f	0.02040532
22	0xbc7250aa	-0.01478974
23	0x3e06e640	0.13173771
24	0xbd30a1bf	-0.043123003
25	0xbbd09fe0	-0.006366715
26	0xbd69087d	-0.05689286
27	0x3dd6eae5	0.10494021
28	0xbcfd300c	-0.0309067
29	0x3c71e404	0.014763836
30	0x3d4bfbb6	0.049800597
31	0x3e0194ae	0.12654373
32	0x3d1a8745	0.03772666
33	0xbe04fa4d	-0.12986107
34	0x3d668169	0.05627576
35	0xbd94785d	-0.0724952
36	0xbda16055	-0.07879702
37	0xbd942c56	-0.07235019
38	0xbdd262f7	-0.10272782
39	0xbd62d169	-0.05537549
40	0xbdc1c63f	-0.094616406
41	0x3e040d92	0.12895802
42	0x3db2bd23	0.08727481
43	0xbd762341	-0.060092214
44	0x3d51eac9	0.0512493
45	0xbcfb27f6	-0.030658703
46	0xbd92c63f	-0.07166719
47	0xbdaaecb7	-0.08345931
48	0x3c69147e	0.014226077
49	0xbd727587	-0.059194114
50	0xbd4a6b55	-0.049418766
51	0x3d13f740	0.036124468
52	0xbdaf6c97	-0.08565634
53	0xbd497b5f	-0.04918992
54	0x3df757d1	0.120772965
55	0xbdb4c09f	-0.08825802
56	0xbdafdfab	-0.08587583
57	0x3dfdbae8	0.12389165
58	0xbc2c3245	-0.010510032
59	0x3d1ef83f	0.038810965
60	0xbdcf483f	-0.10121202
61	0x3cdb359b	0.02675896
62	0x3c5da270	0.013527498
63	0x3dde5fcf	0.10858118
64	0xbb652471	-0.0034964348
65	0x3df8dc1e	0.12151359
66	0x3a9dbd60	0.0012034588
67	0xbdc7c8f5	-0.097551264
68	0x3db5da8e	0.088795766
69	0xbdbade06	-0.09124379
70	0x3d407221	0.04698384
71	0xbdb9b60e	-0.09067927
72	0xbdaf20b9	-0.08551163
73	0x3dba8efa	0.09109302
74	0xbe09529f	-0.13410424
75	0xbd1194d0	-0.03554231
76	0xbd892396	-0.066962406
77	0xbdcecb76	-0.10097401
78	0xbd282a5b	-0.04105602
79	0x3ca7f2fe	0.02050161
80	0x3cd020ef	0.025406329
81	0x3d375224	0.04475607
82	0x3db7b135	0.089693464
83	0xbdb47e3d	-0.088131405
84	0x3d533df9	0.051572774
85	0x3d2394ba	0.03993676
86	0xbc947e78	-0.018126711
87	0x3e08c1fa	0.13355246
88	0x3d8afcb2	0.06786479
89	0xbddcc199	-0.10779113
90	0x3de642dc	0.11243221
91	0xbcd4e74e	-0.0259892
92	0x3d80b440	0.0628438
93	0x3d98f36b	0.07468303
94	0xbcc9a7bf	-0.02461612
95	0xbd35287f	-0.044228073
96	0x3c586583	0.013207796
97	0xbc105a37	-0.008810571
98	0xbdcffc88	-0.101555884
99	0x3d1e908b	0.038712066
100	0x3c945db0	0.01811108
101	0xbbc4a4b8	-0.0060010813
102	0xbda9fdee	-0.08300386
103	0xbb6a7d20	-0.0035780147
104	0x3a158b5a	0.0005704664
105	0x3cd33f85	0.025787124
106	0xbdb1c5a9	-0.08680279
107	0xbdb35c4a	-0.08757837
108	0xbb9b4737	-0.004738714
109	0xbb56ddef	-0.0032786091
110	0xbd82920d	-0.06375513
111	0x3de9abd8	0.1140973
112	0xbd6ac83b	-0.05731986
113	0xbdc5dddb	-0.09661456
114	0x3b99d4bd	0.00469455
115	0x3d8aaca5	0.067712106
116	0xbd26defa	-0.04073999
117	0x3dae361e	0.08506416
118	0x3d6fa072	0.058502622
119	0x3cac3a5b	0.02102392
120	0x3c6ac6c9	0.014329621
121	0xbb20906e	-0.002450015
122	0x3df7ba40	0.12096071
123	0xbd0b8cee	-0.034069948
124	0xbb7344df	-0.0037119908
125	0x3da8051b	0.08204099
126	0xbb8f4582	-0.0043722996
127	0xbd4d5e5a	-0.05013881
